deep-compression/l-lenet.pth (torch, 253063 bytes, 10 tensors)

weight f4 [6, 1, 5, 5]
00000000: d321 99bd 3ed0 41be 5f9f ab3c 8b23 123e
00000010: 4c5a bb3d 4fad 61bd eb96 b4bc 759e 133e
00000020: 9781 be3e a209 4c3e 55b9 e7bb 1618 033e
00000030: f1ea ff3e d24c 093f 7f4f f43e 1a1e b03e
00000040: 4657 d73e 8235 7a3e 8bc7 dd3e 91a4 f93d
00000050: 910c 073e c7d7 a93e 9c32 ab3e f13a a63e
00000060: d354 8e3e 81fc 3b3e 38f0 a0bd 9ac5 45bd
00000070: bf5d 59bb db42 7cbe 3a72 0c3d a20d 2a3e
00000080: 9e73 09be 7c8d 8ebe 742e 3abe f7de bc3e
00000090: 8cf1 8e3d f276 223e c04d 24be 0452 c63d
000000a0: 8ef3 c33d 1b0a a83e 83cc b93e b515 4f3e
000000b0: 2188 063e 9afe 253e 1fc5 d23e 92bc 923e
000000c0: c7de 8d3e 9e5c 933e 374c 823e a082 b7bd
000000d0: 860f 553c c34f 04be 4e29 18be 3114 cd3d
000000e0: 918d bebd 6333 9dbd f094 70be 03d0 603d
000000f0: 424e 933e c5f0 c63d 973e 3ebe 7183 9c3d
00000100: e18b 74bd 0673 a23e 8212 75bc f4e8 60be
00000110: fea9 66be d101 f23d cc6c 613e 0ae4 cb3c
00000120: ee30 23be 70d3 65bd 7588 11be 9adf 2a3e
00000130: cf62 453e 4230 483e 1269 3e3d bf34 933e
00000140: 30e0 b33e 54e2 873e f739 5e3e 42ce ec3d
00000150: 241d ac3e df80 553b 05b1 15be a3e2 ce3d
00000160: 977b 0b3c 3b83 bb3d 99d0 68be f331 e4bd
00000170: 29da 75be 55b3 023d 746a 4abe 00f8 ff3d
00000180: b645 e4bd 9222 68be 2204 45be 103e 29be
00000190: bab1 a63e ef27 a63e 3a41 f43e 7c1d 613e
000001a0: e81c 3d3e 7846 383d 4c96 ae3e 4c66 c33e
000001b0: 05a5 a83e 0d30 d03e ca41 6dbb 0eb5 023e
000001c0: 8233 163e bab0 32bc d84b 4e3e ddd4 5dbe
000001d0: b34a 1bbe 7981 35be 64a6 b53d f373 a63d
000001e0: 02d8 f8bd 643a 48be b7fd 9cbd 4fc4 ae3c
000001f0: 9fbb 133d 92f4 ebbd 1378 4a3e 75f9 943d
00000200: 501d 763e 9171 ec3d 54eb cfbd 497b 4e3e
00000210: 308a b73b 4061 363e 465b 813e dbbb 5c3e
00000220: c573 7f3e d73a af3d 82c9 a63e c293 563e
00000230: 3f7a 053e 57bb 473e 981b dc3e 9797 ee3e
00000240: 3b5d fa3e dfae 453d e534 bf3e c1c8 973e
00000250: 607e ff3e 806d f93e
-0.074771546 -0.18927094 0.020950017 0.14271371 0.09148082 -0.05509692 -0.02204462 0.14415915
0.37208244 0.1992555 -0.007071654 0.12802157 0.49983934 0.53632843 0.477169 0.34397966
0.42058772 0.24434474 0.43316302 0.12189592 0.13188387 0.33172438 0.3343705 0.32466844
0.2779909 0.18358041 -0.07858318 -0.04828415 -0.003316745 -0.24634878 0.034288622 0.16606763
-0.1342301 -0.2784232 -0.18181783 0.3688886 0.06979665 0.15865687 -0.16045284 0.09683612
0.09567939 0.3282021 0.36288843 0.20223124 0.13137867 0.16210404 0.41166016 0.28659493
0.27709028 0.287816 0.25448772 -0.089604616 0.013004189 -0.12921052 -0.14859506 0.10013617
-0.093043454 -0.07675817 -0.23494315 0.054885875 0.28770643 0.09713892 -0.18578564 0.07642258
-0.05970371 0.3172838 -0.014958026 -0.21963865 -0.22525784 0.11816753 0.22014159 0.024889011
-0.15936634 -0.056109846 -0.1421221 0.1668686 0.19275974 0.19549659 0.04648692 0.2875118
0.3513198 0.26539862 0.217018 0.11562778 0.33615983 0.0032578034 -0.14618309 0.10101821
0.008513353 0.091558896 -0.22735824 -0.111423396 -0.24009003 0.031909306 -0.19767171 0.12498474
-0.11146109 -0.22669438 -0.19239858 -0.16527581 0.3255747 0.32452342 0.47706014 0.21983904
0.18468058 0.04498908 0.34099042 0.38163984 0.329384 0.4066166 -0.0036202543 0.1276438
0.14668086 -0.010906393 0.2014612 -0.21663232 -0.15165214 -0.17725171 0.08869627 0.08127584
-0.12150575 -0.19553524 -0.0766558 0.021333842 0.0360676 -0.115212575 0.19772367 0.07274143
0.2403462 0.115450986 -0.10152307 0.20164217 0.00560119 0.17810535 0.2526495 0.21556036
0.24946506 0.08556145 0.32575613 0.20954803 0.13034914 0.19505058 0.42989802 0.4660003
0.48899254 0.048262473 0.37345043 0.2964535 0.49901104 0.48716354

bias f4 [6]
00000000: 27f3 a13d 8056 6b3d af29 023e 9583 173d
00000010: c08d 7f3d b236 d53b
0.07907706 0.05745554 0.12711214 0.03699072 0.062391043 0.0065067643

weight f4 [16, 6, 5, 5]
00000000: 123e c43c de1e 13be f16f 3dbe 1302 c2bd
00000010: 7612 d2bd bd1c 303d 5b60 2d3d a26c a2bc
00000020: 0cf5 a33d e361 433e 6b11 5a3c ac62 273e
00000030: c171 443e 9a66 333e b4cd 383e 396c 94bd
00000040: bfef 763c 8ab4 01be ddab 11be c87c 153c
00000050: a58b 2abe 70c4 3dbe 4a4f 80bd 4478 64bd
00000060: 54fb d6bd 9e7f bb3d dc5e 033c 2b76 b33c
00000070: 86a3 803d 68c4 86bd ad71 163e cfe8 273e
00000080: efdf f73d 9544 343e 46fb f53d 3e58 e13d
00000090: 7271 523d e620 973d f2eb 5d3d 479b 203d
000000a0: 576a 9a3d 1b26 e33c 9425 3bbd 65f8 ecbd
000000b0: ed37 16be 360b 5abd 9b7e 0abd ac5e 31bd
000000c0: a86a c6bd 0c66 ffbd ad18 afbd 5cd4 e5bc
000000d0: 1637 91bd 7757 acbd ad4d f1bd 5ce7 9ebd
000000e0: ba93 c9bd 5bbc b3bc 33fa 2ebd bfaf 99bd
000000f0: b2fa abbd d4fa 97bd 69fd 59bd cec5 be3c
00000100: 3d36 01be 68bd 72bd 9c9b c0bd 6e2d d6bd
00000110: 3370 96bd c1d7 93bd f044 cabd 3339 3dbd
00000120: 710e 7cbd 8051 e8bd d938 a93b 484a 96bc
00000130: a350 57bd 46e6 a73d 0f04 99bd 85eb 643c
00000140: 5b21 873d dda3 afbc c014 263c e7b7 91ba
00000150: 28c6 80bc 831d b0bb ceff f53d 2270 ed3b
00000160: 2859 853c e79c 303d c7ef f33d a9f5 be3d
00000170: 014a 0b3e 379a ca3d 9adc 0d3e 85fb c23d
00000180: 69be 0a3e 16f6 ac3d 46a5 813d e216 503d
00000190: 6e41 d1bc fef3 dbbc cef5 f5bb 5fe6 d7bd
000001a0: d306 26bd ffc6 babd 1bb4 f2bd e056 cdbc
000001b0: d814 c4bd ff2d 1ebe 808f 8e3d 067e 01bd
000001c0: 3c36 a83c 18fb 8d3d f673 2f3a d013 d73d
000001d0: a2f0 0f3e 284b 3e3e 608e c53d 0577 8c3d
000001e0: 7cd9 183e 1cc8 063d 4698 ca3d a689 933a
000001f0: e718 99bd 4696 f8bd d22c b0bd 120e 9bbd
00000200: 28fb 8fbd c0d9 dbbd 624d 533d 42e2 263d
00000210: b536 463d adca 173e 848b 443e 4598 053e
00000220: 2b1e 113e 9778 193e 8976 0a3e 1353 a73d
00000230: 1ebc 4e3d 0495 bebd dac1 bdbd 1e25 abbd
00000240: 7036 73bd d14a 47bd d181 9abd 230c 74bc
00000250: 4fad ccbc 49a4 f6bd 2f1d 33be 1105 5dbe
00000260: 4350 63be 5146 35be 281a 3cbe 72e2 e4bb
00000270: 8fd1 07be 7026 18bd 9840 b8bd 449c 7e3b
00000280: 928e ff3d 6cd5 883d b830 7b3d 1ef9 ce3d
00000290: 6fc0 783d 3edd 873d 572a ca3d 4f1c 4fbc
000002a0: 81d7 013e 21b1 223e 1c45 b3bc 5356 f73c
000002b0: 678f aabd 1bb4 20bd 1708 943c b428 fdbd
000002c0: ebe4 31be b9dc efbd 1120 99bd fecc d6bd
000002d0: 22dc 68bd e5f7 003b d496 a9bd 5546 8a3d
000002e0: d8c2 873d cb6b 1f3e d85d ac3d ca2d e53c
000002f0: eaf6 023d c215 863d 9732 703c 155a 0bbc
00000300: e218 6fbc e4d2 ca3d 9829 f63c 35de 513d
00000310: 1ae7 8d3d 85f1 b43c 667e 273c 5904 73bc
00000320: c57b 1cbd 268e dbbc fcc2 56bd efa4 4ebd
00000330: 5f8d 10bc 45e8 25bc a01e 543d 7253 81bc
00000340: fbea b23c e7bd 89bd 7da4 c0bc 1252 583c
00000350: 41c3 cd3b b5b4 063d cc89 2a3d 276c 2f3c
00000360: 125c 5dbd 57d6 1a3b 88d0 1f3c d9ea 493d
00000370: 162c e43c 2509 8dbd 68f4 29bd 924f b0ba
00000380: 279b cebc dd1e d43d 94cf 273b 9c12 973d
00000390: a96d a33d 98f8 2cbc 41a8 0a3c b42c 7b3b
000003a0: c383 8ebd 0454 c2bd 4133 313d 3abe 4dbd
000003b0: b844 eeb8 f6bc 4bbd 8032 f8bc 2061 d4bd
000003c0: 5409 673d ed05 4e3d 9acd b23c b789 903d
000003d0: 9e17 0d3d 0543 0d3d 4aab 943d 340e 763d
000003e0: b1e2 fabc cbcb 273c 8d61 90bd 045d b2bd
000003f0: b10f 0d3d fd7a 19bd c7a0 29bd d8c3 2fbe
0.023955379 -0.14367244 -0.18499734 -0.09473052 -0.102574274 0.042996157 0.04232822 -0.01982719
0.08005723 0.1908031 0.013309817 0.16346234 0.19184019 0.17519608 0.1804722 -0.07247204
0.015071808 -0.12666526 -0.14225717 0.009123988 -0.16654833 -0.18531966 -0.06265123 -0.055778757
-0.10497156 0.091552004 0.008018222 0.021906933 0.062811896 -0.0658043 0.14691801 0.16397403
0.12103259 0.17604287 0.12010817 0.11003159 0.05137772 0.07379322 0.054180093 0.039210584
0.07539814 0.027728131 -0.045690134 -0.11570815 -0.14669771 -0.053233348 -0.033812147 -0.043303177
-0.09688312 -0.12470636 -0.085496284 -0.028055362 -0.07090585 -0.0841512 -0.117823936 -0.07758972
-0.0984263 -0.0219404 -0.042719077 -0.07504224 -0.08397426 -0.074208885 -0.053220186 0.02328768
-0.12618347 -0.059262663 -0.0940468 -0.10457884 -0.07345619 -0.07218886 -0.0987643 -0.046197128
-0.06153721 -0.1134367 0.0051642475 -0.018345967 -0.052567136 0.08198218 -0.07471477 0.013972168
0.06598159 -0.02144044 0.010136783 -0.0011117429 -0.015719488 -0.005374612 0.120116815 0.0072460333
0.016277865 0.043118384 0.11910968 0.093242 0.13602449 0.098926954 0.13853684 0.0952063
0.13549198 0.08445375 0.063303515 0.050803073 -0.025543895 -0.026849743 -0.007506109 -0.10541987
-0.04053385 -0.09119987 -0.11850759 -0.02506584 -0.09574288 -0.15447234 0.06960964 -0.031614326
0.020533673 0.06932658 0.0006693 0.10501826 0.14056638 0.18583357 0.096462965 0.06858639
0.14926714 0.032905683 0.09892325 0.0011256232 -0.07475453 -0.121380374 -0.08602299 -0.07571043
-0.07030326 -0.10734892 0.05158747 0.04074312 0.048392016 0.14823408 0.19193846 0.13046367
0.14171664 0.14987408 0.1352178 0.08170142 0.05047237 -0.09305766 -0.0926549 -0.08356689
-0.059378088 -0.048655335 -0.07544292 -0.014895472 -0.024984984 -0.12043054 -0.17491601 -0.21583964
-0.22198586 -0.17702605 -0.18369353 -0.006985002 -0.13263534 -0.03714603 -0.08996695 0.0038850466
0.12478365 0.06681332 0.06132576 0.10106109 0.060730394 0.066339955 0.09871357 -0.012641027
0.12679864 0.15887882 -0.02188354 0.03019253 -0.08328133 -0.039234262 0.018070264 -0.12361279
-0.17372482 -0.117120214 -0.07476819 -0.10488318 -0.05685056 0.0019679007 -0.08280721 0.06751696
0.0662896 0.15568464 0.08416337 0.027975935 0.031973757 0.06547119 0.014660499 -0.008505364
-0.014593335 0.099035054 0.03004913 0.051237304 0.06928845 0.022087822 0.010223007 -0.0148325795
-0.038203973 -0.02680118 -0.052432045 -0.05045026 -0.008822768 -0.010126178 0.05178702 -0.01578686
0.021840563 -0.06725674 -0.023515934 0.013203161 0.0062793796 0.03288718 0.04163532 0.010706938
-0.054042883 0.0023626292 0.009754308 0.049296234 0.027853053 -0.0688651 -0.04149285 -0.0013451448
-0.025220467 0.10357449 0.0025605904 0.07376596 0.079799004 -0.010557316 0.008462966 0.0038326206
-0.06958725 -0.09488681 0.04326177 -0.050230242 -0.00011361524 -0.049740754 -0.030297518 -0.103700876
0.05640538 0.05029862 0.021826554 0.07057517 0.03444635 0.034487743 0.07259233 0.06007214
-0.030625673 0.010241459 -0.07049856 -0.087091476 0.034438793 -0.037470806 -0.041413095 -0.17164552

bias f4 [16]
00000000: d66b b5bd d61e 943d 23ca 923d 4015 f83c
00000010: ae65 44bc 68ae f73b 5aed a5bd 86ba 32bd
00000020: 02aa 40bd 5687 4b3c 5f39 103e c697 08bd
00000030: 3d50 4d3d 9b1e 8f3d a4ac f5bc 2916 363d
-0.08858459 0.07232444 0.07167461 0.03028357 -0.011987133 0.0075586326 -0.08101912 -0.043634914
-0.047037132 0.012422403 0.14084385 -0.033347867 0.05012535 0.069882594 -0.029989548 0.044454727

weight f4 [120, 400]
00000000: 8783 0fbd 32c3 073d c4db 06bc 405f 74bc
00000010: 735e 0bbd 5da6 06bd 8f39 1c3c ba33 3c3c
00000020: 9752 85bc d847 83bd 1e3c 06bd 210d 9e3b
00000030: a7b4 c73c 4c51 7c3d 106c dc3c f203 883c
00000040: 6ce0 b03c bf11 113d 187a 083c 37b3 2dbd
00000050: 0032 bbbc 2549 e2bc f618 33bd 8d56 38bd
00000060: 1982 6cbd 50a2 cd3c aba2 e03b f9be 01bd
00000070: 1c92 2ebd e261 e5bb a947 96bc 955f 5b3c
00000080: 8ea7 51bd 514a 14bd 51cd 81bd f6c8 78bd
00000090: bb94 7eba 6efb 33bc 5578 e2bc 6d2d 94bd
000000a0: bbec 30bd 9422 afbc 06a9 b63d c8ef 0f3d
000000b0: 273b c03b e9d8 013c 37e2 45bd c3eb 17bd
000000c0: 4b20 dabc 7f15 94bc 9a72 83bc 0910 c5bc
000000d0: 1127 f1bb 2f9c 7bbc b391 fcbc 434d 6c3c
000000e0: 8a19 dbbb 74c4 afbc cb98 af3b 0739 51bc
000000f0: 48eb 7fbc 36a1 143d 4086 77bc 0212 ef3b
00000100: 1240 e2bc 5ed0 b8bc 4e60 be3a 3b45 9a3c
00000110: 246f 883d 92ae 2f3c c917 733d 379c 5c3c
00000120: 3314 213d c692 a6bc 012d dfbc 07be 2d3c
00000130: 0512 493d 4a36 4abd 1418 753c d74a 6dbc
00000140: 37bc cebb 765d af3c ce06 263c b81a d63c
00000150: 75a4 873c 279e 863c 566c 9fbc f1ce 393d
00000160: 5193 af3b d879 663c 183b 29ba 7a9a ebba
00000170: 161f 5cbd 3541 edbc 791d 00bd b781 c9bb
00000180: b828 2bbd 003e 2b3c 32a8 13bd 2a57 c6bc
00000190: 9a40 f23c 37a1 08bd a964 cc3b ca99 523d
000001a0: a4f0 0b3c 8e7b 053d 8934 a5bc 90b5 6ebc
000001b0: 0623 0a3d 51e9 973c 1a55 163d ae30 b8bb
000001c0: 79e3 d7bc 793a ec3c 8abe 34bd a7a7 0abd
000001d0: 86a0 f83c 7867 2e3d e79e 143d c507 c9bb
000001e0: 8a96 b0bb 2c3f 25bd e7f1 953c dee6 0fbc
000001f0: 527e 283d 1d5c 32bd 1bb2 c33b fd95 54bd
00000200: 7305 38bd 4fe9 283d 3d9f 333d ef44 e43c
00000210: 69b9 133d 60ed 0e3c 0c13 07bd feb6 183c
00000220: 9808 abba a660 f33c 18d6 053b 972d 0bbc
00000230: 6394 503c ab41 fd3c c496 303d 5266 e2bc
00000240: 574f 4b3d 28fa 473d 18f1 bebc 1b77 00ba
00000250: 9f42 e3bc e892 b03c 3c4f 293c 5efc dbbc
00000260: bfc1 cc3c e753 923c 2eec 353d 1c75 bc3b
00000270: 1a0e 083d c6c4 91bc 9f36 a73c 9bfb 663c
00000280: 812b 82ba fad5 e03c c28f 42bd 2a29 e03b
00000290: c3c5 07bc e521 edbc e541 1d3c 323d d23b
000002a0: 7171 be3c f4c1 a93c 2fbe 763d 78b7 45bc
000002b0: 352d 0abd fda1 123a a566 e9bc 9d4c 35bd
000002c0: c29d 133d 0cd1 1d3c 5ca4 8cbc ba66 2f3d
000002d0: 27f5 eebc f036 b9bc cc4b cb3b 118d 513d
000002e0: 8051 bb3b ae2d d53c 1c97 41bd 8438 a43c
000002f0: 1acd eabc 231b f13c 3779 823c 6edc 623c
00000300: f680 62bd 4071 263d 0d77 e4bb e187 77bc
00000310: ab81 403d a897 443d d1e4 16bc 019e 083d
00000320: 6778 003d a353 71bd c16f 0a3d e85c d3bc
00000330: 2f0b f0bb d9dc eebb 574e db3c 15b3 9eba
00000340: 030b 8c3c 347c 4abd 4b95 5ebc 1484 70bb
00000350: 70a1 0e3d 56b1 f93c c659 9bbc 9bcf 183d
00000360: 1297 76bd 822f 053d 3b55 bb3c 2927 8c3b
00000370: a049 2b3d 801f f53c 557c 813c e621 1bbd
00000380: 4475 c2bb c6c2 693b 48c3 2ebd a9a8 a4bc
00000390: e149 3dbd 2c77 833c 9a60 633c f10f 323c
000003a0: 1531 df3c 3f86 adbc ac38 e83b 270b 23bc
000003b0: 08d2 253d e258 00bc c8e0 0b3d ddbb 3dbc
000003c0: a0f7 b03c 0dc9 143d 154a 9bbb 1b96 31bd
000003d0: 0b10 e9bc 9b6d 0c3b 9705 843c 254e ba3c
000003e0: 9d0a 153d 0c70 b6bc ec9f 1bbc 11e7 43bd
000003f0: 1a8e 9f3c 73ec 10bd e96e f1bc 7b0e 9bbd
-0.035037544 0.033145137 -0.008231107 -0.0149152875 -0.03402562 -0.0328735 0.009535207 0.011486942
-0.016274733 -0.064101875 -0.032772176 0.0048233424 0.024378134 0.06160097 0.026906997 0.016603444
0.021591388 0.035417315 0.008329891 -0.04240724 -0.02285099 -0.027622769 -0.043724976 -0.045004416
-0.05774126 0.02510181 0.006855329 -0.031676266 -0.04261981 -0.007000194 -0.018344717 0.013389488
-0.051185183 -0.036203686 -0.06337989 -0.060738526 -0.00097114936 -0.0109852385 -0.02764527 -0.07235227
-0.043194514 -0.021378793 0.089189574 0.035140783 0.0058664265 0.007925251 -0.04831144 -0.037090074
-0.026626727 -0.018076656 -0.016045857 -0.024055498 -0.0073593934 -0.015357061 -0.030831194 0.0144227175
-0.006686394 -0.02145598 0.0053587905 -0.012769944 -0.01562006 0.036286555 -0.015107691 0.007295848
-0.027618442 -0.022560295 0.0014524551 0.01883184 0.066618234 0.010722773 0.059348855 0.013464979
0.039325904 -0.020333659 -0.02724314 0.010604388 0.04908945 -0.04936818 0.014959354 -0.014483175
-0.006309058 0.02140687 0.010133458 0.026135787 0.016557911 0.016432835 -0.019460838 0.04536337
0.0053581377 0.014067136 -0.0006455644 -0.0017975115 -0.053740583 -0.028961757 -0.031278107 -0.0061494964
-0.04178688 0.010451794 -0.036049075 -0.024211485 0.02957182 -0.03335687 0.0062375856 0.051416196
0.00854126 0.032588534 -0.020166652 -0.014569655 0.033724807 0.018543871 0.036702253 -0.0056210374
-0.026353585 0.028836476 -0.044127025 -0.033851292 0.030349981 0.042579144 0.036284354 -0.0061349594
-0.0053890394 -0.04034345 0.018303825 -0.00878307 0.041136093 -0.043544877 0.0059721596 -0.051900852
-0.04492707 0.041238125 0.043853033 0.027864901 0.036065493 0.008723587 -0.03297715 0.0093209725
-0.0013048826 0.029709172 0.00204218 -0.008494756 0.012730691 0.030915102 0.04311253 -0.02763668
0.04963621 0.048822552 -0.023308322 -0.00049005606 -0.027741728 0.021554425 0.010333832 -0.026853736
0.02499473 0.017862273 0.04441469 0.005751265 0.033216573 -0.017794024 0.020411788 0.014098073
-0.0009931178 0.027445782 -0.04750038 0.0068408446 -0.008286896 -0.028946826 0.00959823 0.0064159865
0.023247452 0.020722367 0.060239967 -0.012067668 -0.03373452 0.0005593596 -0.028491328 -0.044262517
0.03603912 0.00963236 -0.017168216 0.042822577 -0.029169632 -0.022609204 0.006204104 0.051159922
0.0057165027 0.026022758 -0.04726325 0.02004648 -0.028662253 0.029431885 0.01592694 0.0138465
-0.055298768 0.040635347 -0.0069722 -0.01510808 0.04699866 0.047996193 -0.0092098275 0.03335381
0.031364825 -0.058917653 0.033797983 -0.025801137 -0.007325552 -0.0072895107 0.026770754 -0.0012107814
0.017095095 -0.049434856 -0.013585399 -0.0036699818 0.034821928 0.030480068 -0.018963706 0.037307363
-0.060202666 0.03251601 0.02286779 0.004277129 0.04181826 0.029922247 0.015806356 -0.037874125
-0.0059343893 0.0035669073 -0.042666703 -0.020099955 -0.046213035 0.016048037 0.013878012 0.010868059
0.027245084 -0.021182178 0.007086834 -0.009951389 0.040483505 -0.007833691 0.034149915 -0.011580435
0.021602452 0.03632455 -0.004739056 -0.043356042 -0.028450033 0.0021427635 0.016115947 0.02274234
0.036387075 -0.022270225 -0.009498578 -0.047827784 0.019476939 -0.035381746 -0.029471831 -0.07571121

bias f4 [120]
00000000: 0e43 223c c78b fabc 7f93 57bd 438e 453c
00000010: d7db 823c d87d 303d 3b08 d2bb 699f da3c
00000020: 46e9 763c 602d 9f3c 9a90 093d a5a1 20bd
00000030: 9ed0 933c 4f18 1fbd ad91 84bc 943f 043d
00000040: 4284 903c 2875 bcbc 94a7 643c ad73 aa3c
00000050: 6a77 2abd e8b9 043d ec98 f3bc 1a9a 333d
00000060: 097b 623a 4855 b4bb 52a9 e33c d865 c6bc
00000070: 89eb 093d 7568 8ebc 919f 063d 28ba a23c
00000080: d840 723c 8b1d ee3c 8bb1 ca3c 77eb 0d3d
00000090: d13c 1fbb ffcf 353d 4555 2cbd 11ef 023d
000000a0: ce82 1d3c df13 b5bc 476e 02bd 0d7f 253d
000000b0: c71c 20bc 28f7 013d b089 423d 917e 1dbd
000000c0: ac7b 1a3d e211 2f3d 7019 cabc cde6 0f3d
000000d0: 257e ffbc 2575 44bb 61df 4f3c 392d 90bc
000000e0: 0a12 0cbc 2ec8 fb3c b0a3 27bd 121d d23c
000000f0: e919 86bc abe6 21bc 93c1 85ba d1da 21bd
00000100: 3674 f73c 1e45 01bd b79e cbbc 8f06 103d
00000110: 1797 193b ba6e d03a d825 30bc 3c0e bbbb
00000120: 7570 423c ca0e c13b 24da 2c3d d0b6 933b
00000130: 9eb3 02bd ae8b 363c 9b28 e6bc 093f 563a
00000140: 728d 35bc 40f7 42bd b1b8 bbbc 5085 1f3d
00000150: 0b54 16bd 89d8 063d 8dea f3bc 8dea 123d
00000160: a34f d13c c974 373d 273e 423c cb22 a83c
00000170: 9195 2dbd 0317 cc3c 7e36 1ebc 87d7 4d3d
00000180: 60fb 0dbd 96a0 133d 53ea 803c af40 1d3c
00000190: ec7d 833c 8ec5 433c c53e 973c ed20 8cbc
000001a0: a8df 58bd c265 163d a89b 873c 3e39 3c3b
000001b0: 4c47 0abc 44d7 163c 9e9a cbbc 2d55 f83c
000001c0: e414 443b 7d17 a93c 0eba 153d 850d b03c
000001d0: 28e2 1fbd 65b5 043d 1eb8 333c 965b 8abc
0.009903682 -0.03058423 -0.052630898 0.012057844 0.015973968 0.043088764 -0.0064096726 0.02668734
0.015070265 0.019430816 0.03358517 -0.039216656 0.018043812 -0.03884154 -0.016182745 0.032287195
0.01764119 -0.023005083 0.013955969 0.020807112 -0.04161779 0.032403857 -0.029736005 0.043848135
0.00086395495 -0.0055033304 0.0277907 -0.024218485 0.03367189 -0.017383793 0.032867018 0.019864157
0.014785968 0.029066822 0.024742862 0.034648385 -0.0024297724 0.044387814 -0.042073507 0.031966273
0.009613706 -0.022104202 -0.03184345 0.04040437 -0.009772486 0.031729847 0.04749459 -0.03845078
0.0377156 0.042741664 -0.024670333 0.03513222 -0.03118808 -0.002997705 0.012687535 -0.017599689
-0.008549223 0.030735102 -0.04092759 0.025648627 -0.016369777 -0.009881656 -0.0010204784 -0.03951532
0.03020678 -0.031560056 -0.024855955 0.035162505 0.0023436004 0.001590214 -0.01075121 -0.005708484
0.011867632 0.0058916556 0.042200223 0.004507877 -0.031909578 0.011141701 -0.028095534 0.0008172845
-0.0110810865 -0.047599077 -0.022915216 0.038945496 -0.036701243 0.032921348 -0.029774928 0.035868216
0.025550669 0.04478911 0.011855639 0.020524403 -0.042378966 0.024913317 -0.009656547 0.05025437
-0.034663558 0.03604182 0.015736734 0.009597941 0.016051255 0.011948956 0.018462548 -0.017105544
-0.05294767 0.036718138 0.016553715 0.0028720642 -0.00843985 0.009206597 -0.024854 0.030314052
0.0029919678 0.020641083 0.03655439 0.021490822 -0.03903404 0.032399554 0.01096919 -0.016889375

weight f4 [84, 120]
00000000: 3013 b63d 0e5f 53bd 3ce3 b9bd 65fb df3d
00000010: bf02 12bc 79b0 0fbd f35e 0bbd fc10 81bd
00000020: aa5f 993c 42e8 78bd 9ff7 c33b c02e bcbc
00000030: ec64 69bd d3f9 c03d 54e1 60bc 495d 623d
00000040: 80a5 723d db32 afbb dfcd 89bd b352 d6ba
00000050: ef3d 3fbc 243b bebd 759e dcbd 55f9 863d
00000060: 0863 2bbc 38ba 923c 3845 5dbd b11c ac3d
00000070: 9896 1ebd 7a25 2ebd fe03 133b 8f45 e7bc
00000080: 8072 a33c b260 cfbc ae3a 643c 3627 1c3d
00000090: 461d 1cbd 46ed 88bd 26ff 55bd 4814 d7bd
000000a0: 5042 b0bd ba52 9cbd b5b7 27bc 2a67 b23d
000000b0: 615d ae3d 53fe e53c 5b93 573d f974 8fbd
000000c0: 2331 873d 5fad 26bc a362 803b 79b6 43bd
000000d0: 4567 d53c 74b2 85bd 7cfc 46bd 1102 b93c
000000e0: 006c 8b3d e5c4 9fbd 0328 1abd 5303 623d
000000f0: ba40 a13d a332 c9bb a242 1abd de34 c53c
00000100: 08ac 08bd 0674 723d cbd1 7f3d e453 8fbd
00000110: 256c 80bd d31b b93d fadc 523c 81be c4bc
00000120: 6139 eebc 0c4b 5b3c 75a5 e93c 73a0 c83d
00000130: 0bde 833d d42d 4d3c 8e55 b2bd d3ca ccbd
00000140: c2c6 38bd 4d0e 84bc e3f0 32bd 6685 a13d
00000150: 4d66 b13d 5482 8d3c b0f1 2a3d b25c c83c
00000160: 1f34 b7bd 4932 1dbd dde7 06bc 90a8 a63d
00000170: 6b18 a6bd fa97 84bd 013d 1d3d 1c9d 8f3d
00000180: f5a7 533d c533 6dbd 974a 0a3d 0585 193d
00000190: d4e0 a03d fc79 0bbd f2e3 4ebc b0c3 a3bc
000001a0: e20c 8bbd 4140 3a3c 4cb1 e83d ed3f 093d
000001b0: fdc1 c7bb 853d 21bd 0113 52bc 6c7f b93c
000001c0: 765f 043d f1d1 19bd 4562 6fbd 9f37 f2bc
000001d0: 1910 a2bc b5c8 f4bc 63cb 733d 741a 9ebd
000001e0: 670b 8f3d 05ff 4abd 6b66 9c3d f160 383d
000001f0: 90ea 7b3c 431b 8a3c 8963 873d 5375 273c
00000200: 90b6 bd3c ea7a 1e3d 6690 31bd f3a8 23bd
00000210: 0fd7 0fbc e562 8ebd dc6c 213d 4d87 a03d
00000220: c3ab 853d 8f55 78bc 2e58 133d fa3a f6bb
00000230: 5071 a3bd cc83 553d 3a51 b0bc 1f20 513c
00000240: 4746 a5bd bb93 b7bd 3052 bf3d 514b a53d
00000250: a2e9 823d 84e6 493d 166d 883d 96b0 cdbd
00000260: ea56 d5ba 2aef 293d e13a 7ebd 0075 033d
00000270: 0f35 c7bc 0b81 6fbd 48e9 ae3d d0c1 74bd
00000280: 08e5 c73d d07a 86bd 7d72 53bd 7f12 8f3c
00000290: ee57 023d d2e9 8b3d c87a 4b3d 74c1 abbd
000002a0: 97dd c03d 059a 6c3b 4bd8 3abd eff7 22bd
000002b0: 7f0b 7b3d 8317 2c3d 94d9 bf3d a18c 15bd
000002c0: 2859 df3b b968 27bd fefe 343d 4b69 80bc
000002d0: 632f bcbd 4232 c93c 43cf 98bd dda4 743c
000002e0: 82d6 23bd d021 223d 7835 363d 0e5c d83c
000002f0: d5bf d03c abbc b7bc 871b 9abd 65e7 683b
00000300: b391 e0bc be8e 95bd 4cc4 4bbc fd88 72bc
00000310: 4441 303d 9feb 643d 8c5d c03c bcd6 95ba
00000320: 5979 3a3d 5ba2 aa3d 71b0 d5bc 64fe 353d
00000330: 42a8 ffbb 9b6e 3fbd 04d1 963d 758b 82bd
00000340: 54f8 253d c29f 303d 63ee 8a3c 2af6 c63d
00000350: dea2 a13c b80e 693c 56f4 bfbc f4ad cdbd
00000360: 5b06 18bd 3f98 503d bb82 e2bc 076f 8f3d
00000370: ec8e bebd fc29 a7bd e2af 74bc 7b56 eb3c
00000380: a368 2e3d 6c59 a0bc 5ec9 5ebd 76b2 823d
00000390: 60be b0bd 307c 813d 982d d43b 1726 ee3c
000003a0: 4571 8bbd c2ae 03bd 210e 7a3d 4c0e 063d
000003b0: ef57 963d 7b99 cb3d 51f0 8ebd c3cc 6b3c
000003c0: cc45 38bd 461b 173d 99ef cf3d dbd5 153a
000003d0: 2bee 503d bd4b b63d d8e0 493d 8560 803d
000003e0: 22ab 8bbc 94d6 513d 76e2 0dbd 1d3c 6b3d
000003f0: ae9c a83d 0d73 71bd eb07 4ebc 4425 1ebd
0.088903785 -0.051604323 -0.09076545 0.109366216 -0.0089117875 -0.035080407 -0.034026098 -0.06302068
0.018722374 -0.060768373 0.0059804465 -0.02297151 -0.056981012 0.0942265 -0.013725597 0.055264745
0.059239864 -0.0053466386 -0.0672872 -0.0016351551 -0.011672481 -0.09288624 -0.10772411 0.06590525
-0.010460623 0.017911062 -0.05402109 0.0840391 -0.038717836 -0.04251621 0.00224328 -0.02823141
0.019952059 -0.025314663 0.013930006 0.038123332 -0.038113855 -0.06685881 -0.05224528 -0.10501915
-0.08606398 -0.07632966 -0.01023667 0.08711083 0.08513904 0.028075373 0.052630764 -0.07004733
0.06601169 -0.010173171 0.0039180084 -0.04778144 0.02605022 -0.06528178 -0.04858063 0.022583993
0.06807709 -0.078012265 -0.037635814 0.05517895 0.07873674 -0.0061400696 -0.037661202 0.02407306
-0.033367187 0.05919268 0.062455934 -0.06998423 -0.06270627 0.0903851 0.012870068 -0.02401662
-0.029080095 0.013384592 0.028521279 0.09796228 0.06438836 0.012523133 -0.087077245 -0.09999623
-0.045111425 -0.0161201 -0.04368676 0.07886772 0.086620905 0.01727406 0.041734397 0.024458263
-0.08945488 -0.038378034 -0.008233991 0.081376195 -0.08110126 -0.064743 0.038388256 0.07012388
0.05167385 -0.0579107 0.03376254 0.037480373 0.078553826 -0.03405188 -0.012627589 -0.019990772
-0.067895666 0.011367858 0.11361942 0.03350823 -0.0060961233 -0.03936531 -0.012821914 0.022643767
0.0323176 -0.03755373 -0.058443327 -0.029567538 -0.019783067 -0.02988086 0.059520137 -0.07719889
0.06984597 -0.04955961 0.07636722 0.045014326 0.015375748 0.016858703 0.06610782 0.010220843
0.023158342 0.03869144 -0.0433506 -0.039956044 -0.008779301 -0.069524564 0.039410457 0.078383066
0.065269016 -0.0151571175 0.035972767 -0.007514355 -0.07980597 0.052127644 -0.021523107 0.012764006
-0.08070045 -0.08963724 0.09341848 0.08071006 0.06392218 0.049292102 0.066614315 -0.10043447
-0.0016276513 0.04148785 -0.06206787 0.032094 -0.024317292 -0.058472674 0.085405886 -0.059755147
0.09760481 -0.065663934 -0.051622856 0.017464874 0.031822138 0.06831707 0.04967764 -0.08386508
0.09417265 0.0036102545 -0.04561643 -0.03978723 0.06129026 0.04201461 0.093676716 -0.036511067
0.006816048 -0.040871356 0.044188492 -0.015675208 -0.09188726 0.024560098 -0.07461407 0.014931885
-0.039999492 0.039583027 0.044484586 0.026411083 0.025482098 -0.022428831 -0.07524782 0.0035538313
-0.027413225 -0.073026165 -0.012436938 -0.014803168 0.043030992 0.05588877 0.023482107 -0.0011431794
0.045525882 0.08331748 -0.02608511 0.04443206 -0.0078020403 -0.04673634 0.07364085 -0.063742556
0.040520027 0.043121107 0.016959375 0.09714921 0.019730981 0.014224701 -0.023431938 -0.100429446
-0.037115436 0.050926443 -0.027650228 0.07003599 -0.09304604 -0.08162305 -0.014934512 0.02872776
0.042580258 -0.01957389 -0.054391257 0.06381695 -0.08630061 0.06322515 0.0064751618 0.029070897
-0.06808714 -0.032149084 0.06104863 0.03272848 0.07340991 0.099413835 -0.069794305 0.014392081
-0.04498844 0.036891244 0.101531215 0.0005715766 0.051008385 0.08901165 0.049286693 0.0626841
-0.017049376 0.05123003 -0.034639798 0.057430375 0.08233009 -0.05894761 -0.01257513 -0.038609758

bias f4 [84]
00000000: 88ec aebb 6849 b4bc 839d 803c b817 89bd
00000010: 850a 8f3d 88d5 473d d4d7 c5bd f004 9e3d
00000020: 63ba 2c3d 538a 01bd 1215 b0bd cb69 d23c
00000030: 8cbe 0ebd 800c a33d f123 b8bd 2e54 9d3d
00000040: e86f e93c ce65 aabd 4902 44bc 75f3 aa3d
00000050: 77b2 87bd 8b7b a73c 1120 9b3c d736 c4bc
00000060: 3683 4ebd 4325 323d 8af9 b5bc a7a3 c3bd
00000070: 4981 1ebd c581 21bd 3c96 aa3d d6d6 02bc
00000080: 7378 71bd cc60 113d c486 a63d 23ab 95bd
00000090: d245 9b3d 9803 3abc b1c0 273d dd34 adbd
000000a0: 9a9e 5b3d 3569 b23c d575 dd3a b685 4b3d
000000b0: 7a00 843d a298 24bc d5d5 6abc e3fd a73d
000000c0: b02d 1e3d 78c1 ad3d 5e78 2f3d 415a 623d
000000d0: e71b 123d aa73 3f3d 6a4a 1b3d 63ae 52bd
000000e0: d4e8 523d 0b02 13bd 7496 8ebd d356 97bd
000000f0: a584 e63c fb4e 603d 1327 6d3c 7961 b23d
00000100: 4fd6 993c b6e6 973c e6e8 33bd aeaf 3b3d
00000110: 956b 113d ac4d 9a3d 02ef 87bd a81e 8fbd
00000120: 7b73 8d3d cdb1 863c a547 643d 2792 653d
00000130: 68f8 5e3d cd4f 9fbd ca69 6d3d 116f 733d
00000140: bc02 9dbd 0ffc 8abd 6967 883d eb47 84bd
-0.0053382553 -0.02200766 0.015700107 -0.06693977 0.06984428 0.048787624 -0.096603066 0.077157855
0.04216994 -0.031626057 -0.08597769 0.025685212 -0.03484969 0.079613686 -0.0899123 0.076820716
0.028495744 -0.08320199 -0.011963435 0.08347217 -0.06625836 0.020444652 0.018936189 -0.02395193
-0.0504181 0.043492567 -0.022213716 -0.095526986 -0.038697515 -0.0394304 0.08329436 -0.007985791
-0.05895276 0.035492703 0.08131173 -0.07308032 0.075816765 -0.011353396 0.04095525 -0.084573485
0.05361805 0.021778682 0.0016896079 0.049688064 0.064454034 -0.010046156 -0.014333208 0.08202722
0.03861779 0.08484167 0.0428394 0.055261854 0.03567114 0.046741165 0.037912764 -0.05143584
0.051491573 -0.03589062 -0.069622904 -0.07389607 0.028139422 0.05476282 0.014474648 0.08709998
0.018778948 0.018542629 -0.04392328 0.045821838 0.03550299 0.07534346 -0.06637384 -0.06988269
0.06906792 0.016442204 0.055732388 0.056047585 0.054436117 -0.07778893 0.057962216 0.059432093
-0.07666537 -0.067863576 0.06660349 -0.0645903

weight f4 [10, 84]
00000000: d1b1 80bd ac1d bbbb 2027 873d 4c36 0f3d
00000010: 923c f13c 409a d13d edac 823d fe18 52bd
00000020: c00f d33d b186 16bd 1d31 db3d fba8 fa3d
00000030: f1ae 57be 3742 ab3d d0e7 5a3e ea99 e6bd
00000040: 6f15 8a3d a3f4 a5bd 22a9 1a3e cfbf a4bd
00000050: 25ec 5a3e 641b f13d b613 883c 3e17 b63c
00000060: 0710 253e a452 b4bd 2c3b 40bd dc97 243e
00000070: 3dd1 b6bd 8a00 873c 94d6 4c3b 919d bf3d
00000080: 3816 2b3e 9970 0bbd f9be 273e 8b6b 083e
00000090: bcc9 d9bd 3e3f a3bd c7b0 80bd 94d1 9f3b
000000a0: bf85 1abe 700f b1bd b724 adbd 1ed1 1a3e
000000b0: 5246 613d 3fad 00be 43f2 e03d 6be1 3f3c
000000c0: 5936 9dbc 5a7f f7bd 2814 ca3d 7178 1bbe
000000d0: 4f65 123e 1701 ba3d f095 07be da9f 5e3c
000000e0: 3799 bc3d eaa3 9ebd 1fe1 c93d bddd 8e3d
000000f0: 7d16 303d e3e2 fd3d 1384 b5bd 97f7 0ebe
00000100: ae79 423e 8abc 763d e24c 993d 48c9 5a3e
00000110: 5696 8d3d 1464 0a3e db42 2e3d 9f49 cf3d
00000120: 02cb 28be 16f7 edbd 6b69 ecbc 9128 283d
00000130: e9ba ddbd 18fa f73b 4b18 38ba 48b4 c8bd
00000140: f6dc 67bd ce88 003d 663a ed3c 2144 84bd
00000150: a661 ea3d fa14 2cbe 57b2 28be 1439 afbd
00000160: cb71 6c3e a4a6 ca3d eb9a 91bd 0ad6 0fbe
00000170: 92e7 cebd 63ca 64bd fed9 bf3d 7f7d 34be
00000180: 0e8b 233e 3f75 cb3d f222 d23d 773f 68bc
00000190: 5caf 55be 30f9 b0bd 4b53 133e 713b 5c3e
000001a0: a86e 5abd 2364 713d e645 bfbd f82f 3a3d
000001b0: 5012 d4bd 3b47 993d d771 50bc 26c3 1a3e
000001c0: 5b40 fcbd a67e de3d 0e5c 373e 2533 3dbe
000001d0: 460d d3bd 4789 b73d b02a e0bc 480e 01be
000001e0: 30e5 cd3d b698 ea3c 1404 85bd 9ba2 9e3d
000001f0: da89 b13d ce59 bdbb c522 f33d 4af9 53bd
00000200: e9a6 9a3e 9dbf b0bc c526 153a 190e e13d
00000210: 5700 a2bc 3adb 2fbc eb7e ecbc 82db 3c3d
00000220: dc9a 14be e9f0 923d 12ae 423e 3a20 343e
00000230: 3e8f 23bc c60d b13d 0295 23bd 4048 993d
00000240: a837 d03d 38ee 7e3c d9bb edbd 842f 003e
00000250: 417f 7bbd cf19 9ebd 7846 16be e2da 84bd
00000260: 98e9 a9bd 486a f33d 518f e639 ff9c 133d
00000270: a688 23be 1e29 553d 3374 443c 7cd9 d7bd
00000280: fcf1 96bd d7d6 4cbb 88f6 1dbe 6c01 eb3d
00000290: 95f1 543e 6be8 cebd defe fcbd 9261 1abe
000002a0: 89e5 09be 189a 103e ff78 f93d 3a62 9c3d
000002b0: 5f64 03bc 20fa f4bc 272a 46be a19b 44be
000002c0: e23f 203d a7e0 303e c182 203e 5dff e0bc
000002d0: 6278 293d e1ba a0bd e446 e4bd c759 333d
000002e0: 9952 67bc 9239 663d 8244 53bd 6533 a73c
000002f0: ea64 563c 5d80 acbd 4a9e 30bd 591f 1b3e
00000300: e48e 0c3c 0650 bc3d 108f babd 0aaf cfbc
00000310: 0e0d 673e 9c95 d03d dcc4 ecbd e9f6 55bc
00000320: f0f3 cebd 8674 c33d eef5 cebd 531c 03be
00000330: 5913 b5bc 3c8c e03d 8437 d2bd 8629 2dbd
00000340: 5dbf febd ed2e b43d dc2c af3d 43f7 8b3d
00000350: c6f3 3b3d 7485 d7bd 934b 0abe c107 113e
00000360: 52bc 9e3d 72fa f7bd 8bc8 0dbd 5e48 fabd
00000370: 6242 e93d cea7 42bb 592a ec3d 8a82 ad3d
00000380: 8114 dc3d 6e7e fdbd 4408 a0bd b8f4 e83d
00000390: 3699 963d f946 59bd 32a3 993d f3d6 bf3d
000003a0: 4c58 833c 8dbc 4dbd 3d6b c4bd 51ca 22be
000003b0: bc73 6cbd 3792 0f3e b61f 97bd 4e29 6ebb
000003c0: f275 c53d 5d7f bbbd 33a2 f2bc 4a6f 90bc
000003d0: febe d1bd 42e7 fc3d 83ec a43d d27b bb3b
000003e0: 9fc7 6abd 6f97 e33d 7e12 543e 1226 c43d
000003f0: 89ce 993b 5831 323d 1d0b bb3c 76da b4bd
-0.06283916 -0.0057103243 0.065992594 0.03496389 0.029447827 0.10234499 0.06380639 -0.051293366
0.103057384 -0.036749545 0.10702727 0.12239262 -0.21062829 0.08362239 0.21377492 -0.112598255
0.067423694 -0.081033014 0.15103582 -0.08044397 0.21379144 0.117728025 0.016610961 0.02222788
0.16119395 -0.08804825 -0.04693143 0.16073555 -0.08926628 0.01647975 0.0031255828 0.09356225
0.16707695 -0.03404293 0.16381444 0.13322274 -0.10634181 -0.07971047 -0.062837176 0.0048772786
-0.15090083 -0.086455226 -0.084542684 0.15118834 0.054998703 -0.12566088 0.10983708 0.011711459
-0.019190954 -0.12084837 0.09867126 -0.15182664 0.14296459 0.09082239 -0.1324079 0.013587916
0.09208911 -0.07746108 0.098573916 0.06975887 0.042990196 0.12396791 -0.08863082 -0.13961636
0.1899173 0.0602384 0.07485367 0.21365845 0.0691344 0.1351474 0.042544227 0.10121464
-0.16483691 -0.116193935 -0.028858861 0.041054312 -0.10826666 0.0075676553 -0.0007022663 -0.09800011
-0.05660721 0.031380467 0.02895851 -0.06458307 0.11444406 -0.16804877 -0.16474281 -0.08555809
0.23090284 0.098950654 -0.071096264 -0.14046493 -0.10102762 -0.055857074 0.093677506 -0.17625998
0.15971014 0.09934472 0.102605715 -0.014175287 -0.20867676 -0.08641279 0.14387242 0.2150705
-0.053328186 0.05893339 -0.09339504 0.045455903 -0.10355055 0.07484289 -0.012722454 0.15113506
-0.12316962 0.10864 0.1790621 -0.18476541 -0.10305266 0.089617305 -0.027364105 -0.12603104
0.1005348 0.028637271 -0.064949185 0.07745858 0.08668871 -0.005778528 0.11871866 -0.051751412
0.30205467 -0.021575743 0.0005689676 0.10989017 -0.019775553 -0.01073342 -0.028869113 0.046107776
-0.14512199 0.07174856 0.19011715 0.17590418 -0.009982882 0.08645205 -0.039937027 0.07484484
0.101668656 0.015559725 -0.11608095 0.12518126 -0.061400656 -0.07719766 -0.14675319 -0.06487061
-0.082965076 0.11885506 0.00043975798 0.036038395 -0.15970096 0.052041166 0.011990595 -0.10539529
-0.073703736 -0.0031255984 -0.15426075 0.114748806 0.20795281 -0.10102924 -0.123532996 -0.15076283
-0.13466467 0.14121282 0.12181281 0.07635923 -0.008019536 -0.029904425 -0.19352017 -0.19199993
0.039123423 0.17273198 0.15674879 -0.027465517 0.04137457 -0.07848144 -0.11146334 0.04378679
-0.014118814 0.056207247 -0.051579006 0.020410249 0.013085583 -0.08422921 -0.043119706 0.15148677
0.00857899 0.09194951 -0.09109318 -0.02535202 0.22563574 0.10184786 -0.115609854 -0.013059356
-0.10105121 0.095437095 -0.10105501 -0.12803774 -0.022103952 0.109642476 -0.10264495 -0.042275928
-0.124388434 0.08798013 0.08553478 0.06834271 0.045886777 -0.10523501 -0.13505392 0.14163114
0.07750763 -0.121083155 -0.03461508 -0.12220834 0.11389615 -0.002970207 0.11531515 0.08472164
0.10746098 -0.1237763 -0.078140765 0.113748014 0.073534414 -0.0530462 0.0750183 0.0936717
0.016033314 -0.050228644 -0.095907666 -0.1589749 -0.05772756 0.1402062 -0.07379095 -0.0036340537
0.09641637 -0.09155152 -0.029618358 -0.017631192 -0.10241507 0.123487964 0.080529235 0.0057215476
-0.05731928 0.11112868 0.20710179 0.09577574 0.0046938104 0.04350409 0.022832448 -0.088307306

bias f4 [10]
00000000: 50da 67bb 39ba 9f3c bc7c b6bb 908f f5bd
00000010: c807 ce3a d32c c03d 35b7 763a 2457 463d
00000020: 5f55 3cbd 8dab d43d
-0.0035377927 0.019497978 -0.0055690687 -0.11990273 0.0015718872 0.093835495 0.0009411455 0.048422948
-0.045979854 0.10384283
